neural-model/best-neural-model30.pth (torch, 5663 bytes, 5 tensors)

weight f4 [15, 30]
000000 6e 43 2a bb 46 9f ed 3d 5d c4 19 3e a9 e6 68 3d
       -0.0025980133 0.116026446 0.15016313 0.0568606
000010 aa cb 06 bc 4d f9 19 bc d9 e1 93 3b ac dd 4e bd
       -0.008227268 -0.009397817 0.004513007 -0.05050437
000020 91 a7 af bd 9e f0 f6 3d 1f 5a 66 bd 6a e6 67 be
       -0.08576883 0.12057613 -0.05623829 -0.2264649
000030 cd 00 54 3e 2a 74 92 bd f1 33 43 be 9b f2 16 be
       0.2070343 -0.07151063 -0.19062783 -0.14740984
000040 ad 01 19 be 91 d6 df bd 61 48 32 3e f1 4f d3 3d
       -0.14942046 -0.10929597 0.17410423 0.10317982
000050 59 ac 67 3d a8 9c 16 3d 9d 71 b2 bc 1b 17 6a 3e
       0.056560848 0.036770493 -0.02178269 0.22860377
000060 3d b9 43 3e 0c 1a a9 bd 77 29 ad bd 3c 35 dc bd
       0.19113632 -0.08256921 -0.084551744 -0.10752341
000070 56 9d 3c 3e 58 b0 8a bc ee c4 3b bd f9 8c 40 3e
       0.18419394 -0.01692979 -0.045842104 0.18803777
000080 9b 87 72 3a a0 e1 1b 3e 3d b3 d1 3c 1d a2 b8 3d
       0.0009251774 0.15222788 0.025598163 0.09015296
000090 09 7e 67 be 55 1e 60 3d 8f a6 52 bd a0 be 77 3d
       -0.22606672 0.054716427 -0.051428374 0.06048453
0000a0 f8 64 12 bd 66 96 e6 bd 1e 9c 3f 3e 11 e3 c0 bc
       -0.035740823 -0.11259155 0.18711898 -0.023545774
0000b0 97 b7 b1 bc 70 93 cf 3d 2d fe f9 3c 43 1b 0b be
       -0.021693988 0.10135543 0.030516708 -0.13584618
0000c0 3b 3a e9 bd a3 c0 3c 3e f4 86 f5 3c 28 ac de bd
       -0.1138806 0.1843286 0.029971577 -0.1087268
0000d0 f8 06 4f be aa 82 af bd bb 9d 6a 3e 46 e9 b4 bd
       -0.20217502 -0.08569844 0.22911732 -0.08833556
0000e0 6d ad 86 3d 11 d4 bf 3d e8 45 42 3d d8 73 b4 3d
       0.06576047 0.0936662 0.04742995 0.08811158
0000f0 29 24 01 3d d2 74 28 bd 4e 93 5e be 62 30 b7 3a
       0.031528626 -0.041127034 -0.2173588 0.0013976211
000100 46 f1 b1 bd 38 c8 44 3d 68 fb a2 3c 9e fe 3f 3b
       -0.086885974 0.048042506 0.01989527 0.002929605
000110 60 a2 0b be 13 a5 19 bd 95 29 6b be 9d e4 44 3e
       -0.1363616 -0.037510943 -0.22965081 0.19227834
000120 ac 08 ed bd 40 8e 01 be f5 5c 2c 3e 3a 79 9a 3d
       -0.1157392 -0.1265192 0.16832335 0.075426534
000130 b1 98 09 be 64 92 4f be 94 53 ed 3d 22 d6 d8 3d
       -0.13437153 -0.20270687 0.11588207 0.105877176
000140 7c 98 a3 bd 97 20 1e 3d 8b ea 16 bc da 3e 72 bd
       -0.079880685 0.0386053 -0.009211193 -0.05914197
000150 64 58 d2 3d 19 92 39 ba 55 bc a7 3d fc 2f 81 bb
       0.102707654 -0.000707896 0.08190218 -0.0039424878
000160 71 d3 62 be 07 fe 9c 3d 7f ba 4b bd 28 53 49 be
       -0.22150971 0.07665639 -0.049738403 -0.19660628
000170 84 24 09 be b4 85 18 3e 75 ff 28 3d 52 23 47 3e
       -0.13392836 0.14894754 0.041259248 0.19447067
000180 08 ce 72 bd c9 7b 47 be a7 69 08 bb f1 3e f0 3d
       -0.059278518 -0.19480814 -0.0020814927 0.11730755
000190 78 5f bd bd 70 e8 1a be c1 1b 0f 3d b2 1a 21 3d
       -0.09246725 -0.1512773 0.034938578 0.0393321
0001a0 ac 82 57 be ea ef 18 3c 61 11 3e 3d e6 dc 3a bd
       -0.21045941 0.009334544 0.046403293 -0.04562082
0001b0 bb 86 1f 3e 3e 89 6e be 7d 35 3e be cf 2d bd 3d
       0.1557874 -0.23294541 -0.18575092 0.09237253
0001c0 e9 d6 2b 3e 2b c8 00 3e a3 26 4a 3d 39 0f cd bd
       0.167812 0.12576358 0.049353253 -0.10012669
0001d0 80 de 5b 3c b4 36 fb bd 78 f6 c6 bd a7 9a fe 3d
       0.013419747 -0.12266293 -0.09714979 0.12431841
0001e0 a5 b8 0d 3e 23 b4 2e 3e fd d3 c9 3d 20 16 09 3e
       0.13839968 0.17060904 0.09854887 0.13387346
0001f0 87 1a dd bd ba 96 a5 3d e4 72 63 3e 95 81 13 3d
       -0.10796075 0.080853894 0.22211796 0.03601225
000200 61 43 92 bd 4e 60 f5 3d f2 c1 2c 3e 74 b2 f1 3d
       -0.07141758 0.11981259 0.1687086 0.11801615
000210 97 4f 02 3e 56 28 09 3e d7 ff f7 3d c5 58 4f 3e
       0.12725674 0.13394293 0.121093445 0.20248707
000220 7f 80 3e 3e 6c 1e ad bd 0d 38 bf 3d bf 3a 1f 3d
       0.18603705 -0.08453068 0.09336863 0.038874384
000230 a0 38 59 3e f8 aa 65 3e 14 96 90 bd c5 16 04 be
       0.21213007 0.224285 -0.07059875 -0.12899311
000240 ef c7 5a 3d 23 ac 83 bd 87 b9 21 3e 9c 3f f2 3c
       0.053413328 -0.06429317 0.1579343 0.029571347
000250 00 a4 18 3e ca 03 15 be b3 96 49 3e 0c 81 92 3c
       0.14906311 -0.14552227 0.19686393 0.0178838
000260 b2 e6 82 bd 7c 34 08 3d fa e9 cb 3d 27 d0 3e 3e
       -0.06391658 0.033253178 0.09956737 0.18634091
000270 e6 83 29 3e da 93 5f 3c 2e 8a 29 3e 50 cc f8 bc
       0.16554222 0.01364609 0.16556618 -0.030370861
000280 98 55 c5 bd e5 df 51 be 00 ba f6 bd 49 b4 0b be
       -0.09635466 -0.20495565 -0.120471954 -0.13642992
000290 00 58 16 3d 39 1d 4d be 8a 02 39 be 3f eb 0e be
       0.036705017 -0.20030679 -0.18067375 -0.13956927
0002a0 bb 6e 15 3e 3e 68 1c be 9d 64 38 3e 46 00 08 3e
       0.14593022 -0.1527414 0.18007131 0.13281354
0002b0 af 06 67 be c0 95 4a 3e 91 e7 5d 3e 9c fa c9 bd
       -0.22561143 0.19783688 0.21670367 -0.09862253
0002c0 52 16 e6 bd 71 51 83 3d 78 fc d8 bd fa 58 a1 3c
       -0.11234726 0.06412018 -0.105950296 0.019695748
0002d0 e0 27 c7 bd 05 6e c8 bd c2 10 37 be 27 19 29 be
       -0.097244024 -0.097866096 -0.17877486 -0.16513501
0002e0 b5 12 5f 3e 68 f8 3a 3e 1e 44 fe bc e2 dd 1e be
       0.2178448 0.18258822 -0.03103834 -0.15514329
0002f0 a4 81 ab bc 20 d4 06 be 31 0a 06 3e 6f 31 f3 b9
       -0.02093584 -0.13166857 0.13089825 -0.00046385403
000300 2f d0 14 3e c9 20 c3 bd 58 ec 00 be 56 2f d1 bd
       0.1453254 -0.09527738 -0.12590158 -0.10214107
000310 d9 72 56 3e ee 1e 00 be c5 c5 a0 bd e1 d4 d8 bd
       0.20942248 -0.12511799 -0.078502215 -0.105874784
000320 af 55 2d 3e a6 6b 13 be ed 47 d6 bd d3 29 17 be
       0.16927217 -0.14396533 -0.104629375 -0.14762048
000330 00 3b 00 3e 12 43 91 bd c1 c5 49 3e 54 49 af bc
       0.12522507 -0.07092871 0.19704343 -0.02139727
000340 c8 98 27 be 20 8a 56 be d8 e5 47 3c e8 da 64 3e
       -0.16366875 -0.20951128 0.012200795 0.22349131
000350 5c d2 a9 3d b7 c9 8f 3d 32 3e 21 3e ab 8c 9c 3d
       0.08292076 0.07020896 0.15746382 0.07644018
000360 4d 71 ee 3d 7b 24 4f be ca d6 5d 3e 66 e1 10 3c
       0.11642704 -0.2022876 0.21663967 0.008842802
000370 5e b9 a9 3d 69 ea 40 3d d6 d2 dc 3d c7 3c 5d 3e
       0.08287309 0.04709855 0.10782401 0.21605216
000380 5e e4 d6 3c bb 2d 20 3e d5 77 4f be e4 80 29 be
       0.02623194 0.15642445 -0.20260556 -0.16553074
000390 7a 46 97 3c 07 7c 4d 3e 15 38 9b bd 47 df 69 3a
       0.018466223 0.20066844 -0.07579056 0.00089215155
0003a0 1e 72 35 be c6 0b 8b 3d f9 76 88 bd c8 b0 83 bc
       -0.17719314 0.06789355 -0.06663317 -0.016075507
0003b0 3d d1 b7 bd 7c 6b d4 bc 01 ec 98 3d da 47 74 bc
       -0.08975456 -0.025930159 0.07466889 -0.014909709
0003c0 ea 99 26 3d 70 67 8b bd 9d 31 12 3e 4b e8 6a be
       0.040674128 -0.068068385 0.14276738 -0.22940175
0003d0 80 2d aa bd 36 26 49 3e 24 aa b6 bd b4 05 8f 3d
       -0.0830946 0.19643483 -0.089191705 0.0698351
0003e0 85 c8 33 3d 0a f7 36 3e bb e6 a0 bd e0 04 12 be
       0.043892402 0.17867675 -0.07856508 -0.14259672
0003f0 f8 fc c1 3d 37 af 0f 3e d3 3e 58 3d 88 49 0c be
       0.09472078 0.14031683 0.05279429 -0.13699925

bias f4 [15]
000000 97 ec 97 3d 6e 93 54 bd 32 8c 16 3d c9 02 8b 3a
       0.07418173 -0.051898412 0.036754794 0.0010605688
000010 9b e9 5f 3d d3 05 c6 bd bf b4 03 be 31 14 3b 3e
       0.054666143 -0.0966908 -0.12861918 0.18269421
000020 84 4e 33 3e 1b 3e e7 b8 d0 24 65 3e cd e5 48 be
       0.1751042 -0.000110265064 0.22377324 -0.19618912
000030 ff 18 2e be 13 fa f1 bd 1e fd 33 bd
       -0.17001723 -0.11815276 -0.043942563

weight f4 [7, 15]
000000 80 0b 91 be 39 4a ff bd 97 4c 8c 3e d6 66 ad 3d
       -0.28329086 -0.12465329 0.27402183 0.0846688
000010 16 4a 9c 3d 2b ad 82 be dd 69 64 3e 7f f0 82 be
       0.07631318 -0.25522742 0.22306009 -0.2557411
000020 aa f2 86 3d da 44 9d 3e f8 e6 58 be 02 5f 73 3e
       0.06589253 0.30716592 -0.21181858 0.23766711
000030 ea 61 8c 3d 03 16 fa bd 50 f3 7f 3e 13 25 ef bc
       0.06854613 -0.1221123 0.2499516 -0.029192483
000040 10 8e 91 3e e9 48 06 be 80 96 0c 3e c7 fa fa 3d
       0.28428698 -0.1311375 0.13729286 0.12254863
000050 64 38 b2 bd 2d 93 10 be db 16 22 3e 25 4d 0f 3d
       -0.08702162 -0.14118643 0.15829031 0.03498568
000060 95 68 fe bd 69 be 24 3e 1a 13 85 bd f5 54 52 be
       -0.12422291 0.1608826 -0.06497784 -0.20540221
000070 b6 5d 55 be b0 17 00 be 63 fb 94 3e 10 69 33 3e
       -0.20836529 -0.12509036 0.29098043 0.17520547
000080 4b e3 15 be 44 3a 50 3e b6 f1 97 3d eb 73 24 3e
       -0.14637487 0.20334727 0.074191496 0.16059844
000090 73 7a 7d 3e 02 0e 58 bd 1f 76 56 3e 4b 8c 0d be
       0.24753742 -0.052747734 0.20943497 -0.13823049
0000a0 3c cb 91 3e d6 38 a3 bd 73 38 df bd 85 5e 4d bc
       0.28475368 -0.07969825 -0.10899439 -0.012534742
0000b0 d2 1c fa 3d 42 a0 1c 3e 2f 77 06 3d 27 4b cc bb
       0.12212528 0.15295509 0.032828506 -0.006234545
0000c0 95 fb 80 3e b1 1b ad 3c a5 29 80 3e 77 6a b9 3d
       0.25191942 0.021131368 0.25031772 0.0905351
0000d0 d5 07 93 3d d7 9c e8 bc 19 59 ad bd 5c bc 54 3e
       0.07179228 -0.0283951 -0.0846426 0.20774978
0000e0 20 46 4f be 84 10 f7 bc 13 66 4a be 6b fe 60 bd
       -0.20241594 -0.030159242 -0.197655 -0.054930132
0000f0 7a 75 5f bd 73 ee 7a bd 05 eb 3b be 96 39 df 3d
       -0.054555394 -0.06126256 -0.18351372 0.108996555
000100 ee 35 4f 3e 92 8d 0e 3e c4 03 8c 3e 38 07 07 3e
       0.20235416 0.13921192 0.27346623 0.13186347
000110 c0 a2 83 3e c5 f9 c4 3d 41 ea 54 bd 8f 7b f0 bd
       0.25710106 0.09617952 -0.051981214 -0.11742317
000120 dc 89 93 3e 13 f1 4f 3d ab 1e e9 bb a9 7c 24 3e
       0.28816116 0.050767016 -0.0071142516 0.16063179
000130 a0 91 82 be 42 1c 5e 3e 2f 24 62 3e f0 36 a4 bd
       -0.25501728 0.21690467 0.22084115 -0.08018291
000140 1a b1 89 be af 3c 22 3d b7 10 34 bd 10 98 48 3e
       -0.2689293 0.039608654 -0.043961253 0.19589257
000150 a5 f5 9f 3c 0d d9 83 be 14 5d 0f be 49 6e 5a be
       0.019526312 -0.25751534 -0.1400035 -0.21331133
000160 94 03 84 be eb 78 73 3e ff 66 4d 3e ab 6f 85 3e
       -0.2578398 0.23776595 0.20058821 0.26061758
000170 38 4d 29 be 0c 4b 3e 3d 76 8c 2a 3d c0 25 45 bd
       -0.16533363 0.04645829 0.04163786 -0.048131704
000180 d3 36 0e be 9e 4c 0a 3e 8f b8 8d 3e ca ab ea 3d
       -0.13888101 0.1350579 0.2767987 0.114585474
000190 8e b5 a4 3d ff 2c 0a be 1b 0c 8f bd 03 1b b9 bd
       0.08042441 -0.13493727 -0.06984731 -0.09038355
0001a0 f3 6c 38 be
       -0.18010311

bias f4 [7]
000000 a7 55 87 bd da a1 56 3e 04 aa 49 bc 7d c9 ee bc
       -0.06608134 0.20960179 -0.012308601 -0.029148811
000010 4a b3 1d bd e1 5d 0c 3d ca bb ee 3d
       -0.03850106 0.034269217 0.11656912

weight f4 [1, 7]
000000 99 12 3b 3e fe f5 c7 be 61 cb 8b be 1f d5 42 be
       0.18268813 -0.39054865 -0.27303603 -0.19026612
000010 da a2 9f be d4 d9 98 3e 6c 24 a4 be
       -0.31178933 0.2985369 -0.32059038
