neural-model/best-neural-model35.pth (torch, 5919 bytes, 5 tensors)

weight f4 [15, 35]
0	0x3e3ca203	0.18421178
1	0xbd143920	-0.03618729
2	0x3e49cd6b	0.19707267
3	0x3df3cfa1	0.119048364
4	0x3e52d076	0.20587334
5	0xbcd18a54	-0.025578655
6	0x3e3c1564	0.18367535
7	0x3d0e6465	0.034763712
8	0xbce3b4c0	-0.02779615
9	0xbd283aa5	-0.041071553
10	0xbda8fc03	-0.082511924
11	0xbc5b4a00	-0.013384342
12	0xbc53aab1	-0.012919114
13	0x3e2f1ef0	0.17101645
14	0x3e395899	0.18100204
15	0x3c61c1b7	0.013779095
16	0x3d9caa90	0.0764972
17	0xbe3962a1	-0.1810403
18	0x3e120c33	0.14262466
19	0xbde78037	-0.11303752
20	0xbe36142f	-0.17781137
21	0x3de7f5ce	0.113261804
22	0x3e5a55b7	0.2132176
23	0xbd604e7c	-0.05476235
24	0x3d845b77	0.06462758
25	0xbe4d9a26	-0.20078334
26	0x3d8e8e4d	0.069607355
27	0x3d96ede5	0.073695935
28	0x3db679cb	0.08909949
29	0x3c795412	0.015217798
30	0xbd327b74	-0.043574765
31	0xbc97f9ee	-0.018551793
32	0x3d800f2f	0.06252896
33	0xbcd9cabf	-0.026585935
34	0x3a87d918	0.0010364382
35	0x3dac6a68	0.08418733
36	0xbdbe5fba	-0.09295602
37	0x3cfa9120	0.03058678
38	0xbd4eb49c	-0.05046521
39	0xbde931cb	-0.113864504
40	0xbdacbf4c	-0.084349245
41	0x3bdf8975	0.006821806
42	0x3dc422be	0.09576939
43	0xbe3b760c	-0.1830675
44	0xbdb1468f	-0.08656036
45	0xbddc1252	-0.10745682
46	0xbd1b449c	-0.037907228
47	0xbdd64b74	-0.1046361
48	0x3d5ac069	0.053406153
49	0xbe0b9f4f	-0.1363499
50	0xbdbf5cae	-0.09343849
51	0x3e59f65c	0.21285385
52	0x3d8e6a72	0.069538966
53	0x3e0302a1	0.12793972
54	0xbbd2645a	-0.0064206542
55	0x3e081b87	0.13291751
56	0xbc4c11af	-0.012455388
57	0x3dc75677	0.09733289
58	0x3d0b333a	0.0339844
59	0xbe39ac6a	-0.18132177
60	0xbe5b91be	-0.21442315
61	0x3e0016af	0.12508653
62	0x3e440447	0.19142257
63	0xbd09ce3c	-0.033643946
64	0x3c5e3aa8	0.013563789
65	0xbd90209f	-0.07037472
66	0x3e4da3bf	0.20081995
67	0x3d203e2b	0.039121788
68	0x3dce3f38	0.10070652
69	0x3e05ba25	0.1305929
70	0xbc176e0e	-0.009242548
71	0xbd6ea60d	-0.058263827
72	0xbe1fd2bc	-0.15607733
73	0x3db7ee25	0.08980969
74	0x3e19ed7b	0.15031998
75	0x3d63de8e	0.055632167
76	0xbdfa16c6	-0.12211375
77	0x3e1e7961	0.1547599
78	0x3cf705f0	0.030154198
79	0x3d3cd8d6	0.04610523
80	0x3db58e47	0.08865028
81	0xbddb5476	-0.10709469
82	0xbdefcd79	-0.11709113
83	0x3e1b0a88	0.15140736
84	0x3dbdc9c2	0.09266998
85	0xbde88295	-0.113530315
86	0x3de73cb7	0.11290877
87	0x3e3d3698	0.18477857
88	0xbdf60de9	-0.12014372
89	0x3dd0c0d8	0.10193032
90	0xbdb5a7fb	-0.0886993
91	0xbe0a5f07	-0.13512813
92	0x3e5ab71e	0.21358916
93	0x3de5cae5	0.1122034
94	0xbd9dec95	-0.0771114
95	0x3ceabf9a	0.028655816
96	0xbd8b5ff3	-0.0680541
97	0x3da31df1	0.07964695
98	0x3da013b3	0.07816257
99	0xbdb2cfd8	-0.08731049
100	0xbc642550	-0.013924912
101	0x3dac0559	0.083994575
102	0x3e2d50a0	0.16925287
103	0x3d93dc7d	0.07219789
104	0xbe2eff26	-0.17089519
105	0xbcc68d8d	-0.024237419
106	0x3dffaee4	0.124845296
107	0xbdd42612	-0.10358824
108	0xbd3f1410	-0.046649992
109	0x3c95fb31	0.018308254
110	0x3d19b5c4	0.03752686
111	0xbdcd7ca5	-0.1003354
112	0x3e1b6975	0.15176947
113	0xbdb6bc47	-0.0892263
114	0x3e6090c5	0.21930225
115	0xbcdf16a4	-0.027232476
116	0x3d9d18b7	0.076707296
117	0xbd3e92eb	-0.04652683
118	0xbd96ebf4	-0.07369223
119	0xbd36a437	-0.0445902
120	0x3e0474b3	0.12935142
121	0x3e4c16f4	0.19930631
122	0xbcf29dba	-0.029616226
123	0x3dc54086	0.096314475
124	0x3ddb2211	0.10699857
125	0x3e429287	0.19001208
126	0x3c8f24af	0.017473547
127	0xbd5a0282	-0.053225048
128	0x3da42bfd	0.080162026
129	0xbe62d3e3	-0.22151141
130	0xbd5b28a9	-0.053505573
131	0x3af54e69	0.0018715385
132	0x3e0339b8	0.12814987
133	0x3e4d296a	0.2003533
134	0xbd26d042	-0.040725954
135	0xbd342408	-0.043979675
136	0xbde6e1a5	-0.11273507
137	0xbdafb413	-0.08579268
138	0x3d9ff440	0.07810259
139	0x3e193d3a	0.14964762
140	0x3e553f5c	0.20824951
141	0xbca4b267	-0.0201046
142	0xbd6b0333	-0.057376098
143	0xbd8d2a6f	-0.06892859
144	0xbcad8752	-0.02118269
145	0xbaa43ce2	-0.0012530352
146	0x3dc90675	0.09815685
147	0x3e595885	0.21225174
148	0x3dbe931a	0.09305401
149	0x3d1cb546	0.038258813
150	0xbd9585f0	-0.07300937
151	0x3b9a961a	0.0047176005
152	0x3d77cafc	0.060496315
153	0xbdb9f422	-0.09079768
154	0x3d4dcfe5	0.05024709
155	0x3c1aa712	0.009439247
156	0x3d0c598f	0.034265097
157	0xbd439518	-0.04774961
158	0xbcd9918a	-0.026558656
159	0xbb648574	-0.0034869583
160	0x3d869176	0.06570713
161	0x3de787cf	0.113052
162	0x3d788ef3	0.060683202
163	0xbde025c1	-0.10944701
164	0xbdbc3997	-0.09190672
165	0xbdc7450f	-0.09729969
166	0x3dd618e8	0.10453969
167	0x3d6f1e0e	0.05837827
168	0x3d610d20	0.054944158
169	0xbd1dda43	-0.03853823
170	0xbe09642b	-0.13417117
171	0x3d333f78	0.0437617
172	0x3d6a558b	0.057210486
173	0xbc1961bf	-0.009361683
174	0x3dd8efe4	0.105926305
175	0x3d827d8a	0.06371601
176	0xbe56f02f	-0.2099006
177	0x3c0cbcc9	0.008589932
178	0x3e4bf420	0.19917345
179	0x3e1dbcb0	0.1540401
180	0x3e09eab5	0.1346844
181	0x3e06617f	0.1312313
182	0x3d540783	0.051764976
183	0x3ccd824a	0.02508654
184	0x3e343009	0.17596449
185	0x3d263285	0.040575523
186	0x3b3e8865	0.0029072997
187	0xbdc3a5d4	-0.095531136
188	0x3e1f8b79	0.15580548
189	0xbe09e173	-0.13464908
190	0xbbaa1e0e	-0.005191571
191	0xbe2f6a13	-0.17130308
192	0x3e2b89ac	0.16751736
193	0x3d58367d	0.05278634
194	0xbdb024a2	-0.08600737
195	0xbe1c4fdf	-0.15264843
196	0xbdfdfff1	-0.124023326
197	0xbdaefc8e	-0.08544265
198	0x3d830cb4	0.06398907
199	0xbdade0f4	-0.08490172
200	0xbdbc4c74	-0.0919427
201	0xbe1a745f	-0.15083455
202	0x3d9acc38	0.07558483
203	0xbd099a3b	-0.03359435
204	0x3d95b4dd	0.073098876
205	0xbe28d889	-0.16488852
206	0x3e24b3a8	0.16084158
207	0x3de6201c	0.11236593
208	0x3dc71e93	0.097226284
209	0xbe1d954b	-0.15388982
210	0x3e370bde	0.1787562
211	0x3ad63e35	0.0016345443
212	0x3e452f37	0.19256292
213	0x3e29be21	0.16576435
214	0xbd44a3aa	-0.048007645
215	0xbd37cf77	-0.04487559
216	0xbd5d4ec8	-0.05403021
217	0x3d941fed	0.07232652
218	0xbdaf0d42	-0.085474506
219	0x3d6e9a2a	0.05825249
220	0xbd6da135	-0.058015067
221	0x3ddd2e4e	0.107998475
222	0xbd89f650	-0.067364335
223	0x3e04dee5	0.12975653
224	0x3e074555	0.13210042
225	0xbdf686b7	-0.120374136
226	0xbe1d9217	-0.1538776
227	0xbe027108	-0.1273843
228	0x3ad11d86	0.0015954233
229	0xbcd2236d	-0.025651658
230	0x3c5fddbe	0.013663707
231	0xbe058a5b	-0.1304106
232	0xbd8978f5	-0.06712524
233	0x3e08b9f2	0.13352183
234	0x3d702488	0.05862859
235	0x3daddb6a	0.084891155
236	0xbd9d32d3	-0.076757096
237	0xbd1ec4e1	-0.038761977
238	0x3e3d4d6c	0.18486565
239	0xbd3f2c67	-0.046673205
240	0xbbcb0ff4	-0.00619697
241	0x3d8dfaf6	0.069326326
242	0xbdc7259a	-0.09723969
243	0xbe10d2c4	-0.141429
244	0x3cc8dafb	0.02451848
245	0x3dc4fc92	0.096184865
246	0x3c6dd237	0.014515451
247	0x3e4a4e27	0.19756375
248	0x3dc252c6	0.09488444
249	0x3cff7018	0.03118138
250	0xbd98e157	-0.07464855
251	0x3c810308	0.015748516
252	0xbd9e48f6	-0.0772876
253	0xbe482e09	-0.19548811
254	0xbc27f4be	-0.010251222
255	0xbd112fb7	-0.035445895

bias f4 [15]
0	0x3d121379	0.0356631
1	0x3e32023b	0.17383663
2	0x3e292097	0.16516338
3	0x3e4e68df	0.20157193
4	0x3dd075a1	0.10178686
5	0x3dae8cbe	0.08522938
6	0x3e327313	0.1742671
7	0x3d6e02ad	0.05810802
8	0x36969680	4.487869e-06
9	0xbdaf6de1	-0.085658796
10	0x3cb8a8e9	0.02254148
11	0x3e3d26a7	0.18471776
12	0xbd8fc094	-0.07019153
13	0x3de49f33	0.11163177
14	0xbdcdfa41	-0.10057498

weight f4 [7, 15]
0	0xbe8e1ab9	-0.27754763
1	0xbe96697c	-0.29377353
2	0xbe37c7ee	-0.17947361
3	0xbd3d4377	-0.046206918
4	0x3e1d0fdb	0.1533808
5	0x3dfb08dc	0.12257549
6	0xbe83c2a6	-0.25734442
7	0xbdac5c2a	-0.084160164
8	0xbe0da76a	-0.13833395
9	0x3e8f320d	0.27967873
10	0xbd18d5aa	-0.03731314
11	0xbe299747	-0.16561614
12	0xbdbb95e3	-0.09159448
13	0xbda981b0	-0.08276689
14	0xbe2c7897	-0.16842876
15	0x3e58d386	0.2117444
16	0x3e4a205d	0.19738908
17	0xbd83d286	-0.064366385
18	0x3e58beb0	0.21166492
19	0xbe4c44ed	-0.19948168
20	0xbdab2809	-0.083572455
21	0xbd5c821e	-0.053835027
22	0x3e525fcb	0.20544355
23	0xbd26b25e	-0.040697448
24	0xbe050100	-0.12988663
25	0x3e4a8c78	0.19780147
26	0xbd84438f	-0.06458198
27	0xbbf2503a	-0.0073948177
28	0xbd9e0469	-0.07715685
29	0xbe2bbc32	-0.1677101
30	0xbe480c46	-0.19535932
31	0x3d2f4760	0.042792678
32	0xbe0afcca	-0.13572994
33	0xbe2a6d41	-0.1664324
34	0xbe731da0	-0.2374177
35	0xbe0fee73	-0.14055805
36	0xbdfbd198	-0.12295836
37	0xbe0a45d8	-0.13503206
38	0x3dc25990	0.09489739
39	0x3e12a200	0.1431961
40	0xbe73290a	-0.23746124
41	0xbdde222c	-0.108463615
42	0x3d088438	0.03332922
43	0x3e408734	0.18801576
44	0xbe5a4ed0	-0.21319127
45	0xbe6950c7	-0.2278472
46	0xbd37ace8	-0.04484263
47	0xbcdfcbbb	-0.027318826
48	0x3e3b5187	0.18292819
49	0xbe46d805	-0.19418342
50	0xbe857dff	-0.2607269
51	0x3bf636a3	0.0075138374
52	0xbe48da63	-0.19614558
53	0x3d8ff670	0.07029426
54	0x3e8dc62f	0.27690265
55	0xbe03ed43	-0.12883477
56	0x3d91c3e6	0.07117443
57	0x3dad10be	0.08450459
58	0xbe16d42b	-0.14729373
59	0x3ded45d7	0.115855865
60	0x3e9b048d	0.3027691
61	0x3d8f63d0	0.070014596
62	0x3e390883	0.18069653
63	0x3e8d2b43	0.2757207
64	0x3c24b0d5	0.010051926
65	0x3d8f46d0	0.06995928
66	0x3e030122	0.12793401
67	0x3e8814bc	0.2657832
68	0xbd6a9b1a	-0.057276823
69	0xbd1bd320	-0.03804314
70	0x3e365857	0.17807136
71	0xbe24ee87	-0.16106616
72	0xbe072fb9	-0.13201798
73	0xbbdbce0c	-0.0067079123
74	0xbdab96b0	-0.08378351
75	0xbe142821	-0.14468433
76	0x3e92c7d4	0.28668082
77	0x3db8fc16	0.090324566
78	0x3e18fbee	0.14939854
79	0xbd21449e	-0.03937208
80	0x3e9c2f24	0.30504715
81	0x3d5a28cd	0.053261567
82	0x3e92a306	0.28640002
83	0x3d14bdf0	0.03631395
84	0xbe82c8e8	-0.25543904
85	0x3e894028	0.2680676
86	0x3e7a7a6f	0.24460767
87	0xbe3a6100	-0.18201065
88	0x3e3cac00	0.18424988
89	0xbe8d3a5e	-0.27583593
90	0xbe87a68d	-0.26494256
91	0x3d4b969f	0.04970419
92	0xbe08c56e	-0.13356563
93	0xbe04bf52	-0.12963608
94	0xbe145342	-0.14484885
95	0xbe984f14	-0.29747832
96	0x3dfb0ec4	0.12258676
97	0xbe5e71cd	-0.21723099
98	0x3e840882	0.2578774
99	0xbd517084	-0.051132694
100	0x3cf0c7af	0.029392092
101	0x3e98e090	0.29858828
102	0x3e0c3bb9	0.13694657
103	0xbe1b5820	-0.15170336
104	0x3e2cf4ea	0.16890302

bias f4 [7]
0	0x3e50fa8e	0.20408079
1	0xbe40b8f8	-0.1882056
2	0xbe580ab8	-0.21097839
3	0x3dba3a92	0.09093203
4	0x3e4a8e4f	0.19780849
5	0x3e2ccadb	0.16874258
6	0x3d81d1ae	0.06338821

weight f4 [1, 7]
0	0x3ea93020	0.3304453
1	0xbe5de419	-0.21669044
2	0xbdc113b0	-0.09427583
3	0x3eba4a34	0.36384737
4	0xbe3f5835	-0.18685992
5	0xbdf83cbc	-0.12120959
6	0x3ece90d1	0.4034486
