neural-model/best-neural-model20.pth (torch, 5023 bytes, 5 tensors)

weight f4 [15, 20]
00000000: e0e2 143e 8fa3 90bd 1dca ddbd 968f 98bd
00000010: 8cb4 b1bd ccef f4bd fd72 9abd 9ce5 95bd
00000020: d511 003e 603e 403e 7163 b7bd b979 e93c
00000030: 3397 b4bd e569 dd3c 39dc 2abe 0012 c6bc
00000040: 49a1 74bc 5319 c73c 3991 f53d 6076 e8bd
00000050: 00a6 6abe f114 853c 342a 71bd 4da8 ebbb
00000060: 3fe8 fdbd 1187 6bbd 18d2 ef3d 82da 7dbe
00000070: 7285 043d c361 12be 9cee ebbd 3629 23be
00000080: ea9c 09be a74d 16bd 41c8 16be ddaf b0bd
00000090: 05bc 063e b056 46be 52fd 1dbd 207d 85be
000000a0: 5e76 24be c8b2 3bbd 9568 b0bb 6b10 523e
000000b0: 8f49 86bd b112 9f3d 04cf 9b3d 0e39 263e
000000c0: 2f74 13be 8b69 843e 3a12 31be 1a4d 8ebc
000000d0: 59c0 7fbb 0ab3 c5bc 72ac cf3d 139c bdbc
000000e0: 1a02 87bd a78d f9bd 7037 3f3e 5a42 3f3e
000000f0: fcf4 bcbd f882 8b3d 7444 dcbd 8e82 823d
00000100: 12be 1ebe 37ac 913c c081 60be 5aa7 2c3d
00000110: 2cec 463e eaa6 5aba a275 75be 0c7e 593e
00000120: 56f4 22be 5418 393e c237 1fbc f5ff 093d
00000130: b215 f1bc d90b 003e c93b 72be 2f51 2ebd
00000140: 118f 803d d48b 4c3d da5e 1c3d 79cf 70be
00000150: f53a 3e3e 1e44 f6bb 32c9 2dbe 1d70 e33d
00000160: 8c34 593e 86e0 78bd f64c 4fbe aad3 753e
00000170: 9aeb febc b33b 4f3d 79a9 26be 6c95 2c3e
00000180: ea62 4fbe f6c5 2b3b bcb8 843e f900 23be
00000190: d3bc 0d3e aba3 893e 1a3e 0fbe d5e6 173d
000001a0: f326 96bd 0cde 4a3e 35cb 093e af6e 80bd
000001b0: a0ed 0a3e f121 163e acb5 223e 2988 6fbe
000001c0: 9bdd d4bc 71ea 6b3e 02fe 32be f5e8 e33d
000001d0: 840b 32be b3e8 7b3e 32f4 13be 82ea a53d
000001e0: 0d1b 643d 8b6b 67bd 6ae2 003e e5fa c93d
000001f0: 985e 123e 0e90 2d3e 7c37 07be 11d9 19be
00000200: 7e11 003e 66c8 acbd d6e2 4dbe 0247 7c3e
00000210: f7d8 6a3d 078f dfbc 4342 c1bc 26ca edbd
00000220: e4a3 5fbe 32fd 22bd c7c1 d53d b5e0 fb3d
00000230: 9152 003d acb4 6dbe 6b2b ab3d f48d 22bd
00000240: 0231 26bd 376d 7cbe b220 6e3e e0ab 05be
00000250: 4e20 33be 7b9d a13d 8851 58be 059b 35be
00000260: 8024 2b3e 5e36 193e 86ac 273e 2287 81be
00000270: a068 033d 428b 083e 8f02 69be 65f8 59be
00000280: 494d 29be 1490 df3c 3b56 3f3c 17c0 353d
00000290: 81bd 8e3c 5a77 3bb9 8783 853d b4a5 4b3d
000002a0: afb9 853c f870 68bd 39a7 673b e181 d0bc
000002b0: 2f9f acbc acc4 0ebe 4d56 04be 8c58 0e3e
000002c0: 77ca fabd 7d4d 283e bec1 c53c aa9b 84bd
000002d0: 76e0 d63c 76e7 813e 1f2c 11be c908 7b3e
000002e0: ed8c a9bd e3cb 343e f1d3 41be 00cf 19bd
000002f0: ac67 4f3e 2f28 eebd 891e 983d 4416 8c3d
00000300: d03a 5b3e 45fe 143e 6b89 0e3e 98b8 23be
00000310: c9c7 fd3c 5789 9dbd 590d 45bc 66c6 2dbe
00000320: 57e9 dcbd d37a 3d3e 3faa 2dbe 5661 f23d
00000330: ae6e 6b3d 175b 1c3d ec25 3a3d c1cb d8bd
00000340: d6bd 22be 59a5 e23c 37ec 78be dddd 57be
00000350: fe8a 003d 49ad 83be 8238 5fbe ec23 673e
00000360: bdf5 623c 2d87 04be f8a9 c4bc 8c3a 393c
00000370: e0bf d33d e524 99bd 2f56 38be 7ec3 4abd
00000380: a78e 41bd 0251 82be 3a54 2f3e 8cdc 88be
00000390: a951 c0bd 26e5 093e 89b7 403e 6fb7 04be
000003a0: 674e 233e 45e7 0b3e d431 48be a596 473e
000003b0: 1115 bf3c b56e 85be c862 a53c fd6b c1bd
000003c0: 4627 3abc a75a 143d ef0b 0c3e f6bc d4bd
000003d0: 8f9d 1c3c 92b1 fbbd e370 2b3e fae1 013e
000003e0: d0ff 643e 16d2 33be 42bd e3bd 9253 81be
000003f0: cdd3 f73d 78e5 83be 5fac fa3d b2e8 823e
0.14539671 -0.07062446 -0.10829566 -0.07449262 -0.08677015 -0.119598 -0.075414635 -0.07319185
0.12506802 0.18773794 -0.08954514 0.028500425 -0.088179015 0.027028034 -0.16685571 -0.024178505
-0.0149310315 0.024304068 0.1199059 -0.11350703 -0.22914886 0.016245337 -0.05887814 -0.007191694
-0.12397813 -0.057501856 0.11709994 -0.24790385 0.032353826 -0.14295106 -0.115201205 -0.1593369
-0.13438764 -0.03669515 -0.14724828 -0.08627293 0.13157661 -0.19369006 -0.038571663 -0.26072025
-0.16060778 -0.045824796 -0.005383561 0.20514075 -0.06556999 0.07767237 0.076078445 0.16232702
-0.1439979 0.25861773 -0.17292109 -0.01737075 -0.003902456 -0.024133224 0.10140313 -0.023145711
-0.06592198 -0.12185221 0.18673491 0.18677655 -0.092264146 0.0681209 -0.10755244 0.063725576
-0.15502194 0.017782314 -0.21924496 0.042151786 0.1942603 -0.0008340912 -0.23970655 0.2123949
-0.1591352 0.18075687 -0.009717884 0.033691365 -0.02942929 0.1250452 -0.23655619 -0.04255789
0.06277288 0.049938038 0.038176395 -0.23516645 0.18577178 -0.0075154444 -0.16971281 0.11105368
0.21211451 -0.060760997 -0.20244202 0.24006525 -0.031118203 0.050594043 -0.16275586 0.16853875
-0.20252576 0.0026210523 0.2592219 -0.1591834 0.13841562 0.2688268 -0.13988534 0.037085373
-0.07331648 0.19811267 0.13456424 -0.06271111 0.13567209 0.14661385 0.15889615 -0.23391785
-0.025984576 0.23038651 -0.17479709 0.111284174 -0.17387205 0.24600486 -0.14448622 0.081013694
0.05568986 -0.056499045 0.1258637 0.098623075 0.14293897 0.16949484 -0.1320476 -0.1502421
0.12506673 -0.084366605 -0.20106062 0.24636462 0.05733582 -0.02728988 -0.023591166 -0.116108224
-0.21839863 -0.039792247 0.10437351 0.12298719 0.03132874 -0.23213452 0.08357891 -0.03968616
-0.04057408 -0.24651037 0.2325466 -0.13053846 -0.17492792 0.07891365 -0.21124852 -0.17734917
0.16713142 0.14962146 0.16374406 -0.2529841 0.0320822 0.13334373 -0.22754882 -0.21286161
-0.16533388 0.027290381 0.011678274 0.044372644 0.017424347 -0.00017878172 0.065192275 0.049718574
0.016323892 -0.05674836 0.0035347475 -0.025452556 -0.021071998 -0.13942212 -0.12923546 0.13900965
-0.12245648 0.1643581 0.024140235 -0.06475003 0.026230078 0.25371903 -0.14176987 0.2451507
-0.082788326 0.17655902 -0.18928505 -0.037550926 0.20254391 -0.11628758 0.07427699 0.06840184
0.21409154 0.14550121 0.13919608 -0.15988386 0.030979054 -0.07692211 -0.012027108 -0.16970214
-0.107866935 0.18503885 -0.16959475 0.118349716 0.0574786 0.038172808 0.04544632 -0.10585738
-0.15892729 0.027666735 -0.24308859 -0.21080728 0.031382553 -0.25718144 -0.217989 0.22572297
0.013852534 -0.1294219 -0.024006829 0.011305463 0.103393316 -0.0747774 -0.18001626 -0.049502842
-0.047255185 -0.2545243 0.17121974 -0.26730764 -0.093905754 0.1346632 0.18820013 -0.129606
0.15947877 0.13662441 -0.19550258 0.1949106 0.023325475 -0.26061025 0.020188704 -0.09444425
-0.011361903 0.036219265 0.13676427 -0.10387604 0.009559049 -0.12289728 0.16742282 0.1268386
0.2236321 -0.1756061 -0.111200824 -0.25259072 0.12100945 -0.25761008 0.122399084 0.25568157

bias f4 [15]
00000000: a203 163e 0262 7e3e b625 3fbe feb3 043e
00000010: a398 793e 4304 5cbc ac60 773e 7928 463e
00000020: 9602 1bbe 0a68 96bd 7fe9 7c3e 14f9 753e
00000030: f382 ffbd 53f3 c9bd 82ed 023e
0.14649823 0.24842075 -0.1866673 0.12959287 0.24374633 -0.01342875 0.24157971 0.19351377
-0.15137705 -0.073440626 0.24698447 0.24020797 -0.124761485 -0.098608635 0.12785915

weight f4 [7, 15]
00000000: b2fc 44be eec5 913e 9efc f43d 5e5e 07bd
00000010: c5b2 63be 605b a0bd d052 4abe 0a62 6a3e
00000020: f75c 87be 43c7 e1bd 9ba7 003e 9648 543e
00000030: 0cae f03d 53e2 363d f7b4 c23d 35ab d6bd
00000040: d7c1 86be d9aa 9a3d b9ed 473d 77cc 933e
00000050: 1333 d03d cba3 8a3e 8261 4f3e 1ade e1bd
00000060: 72fa 9c3e f54d be3d d32a c53d a576 773e
00000070: 9e3f 603b 47a2 45be 8000 fa3c 14fe f53d
00000080: 0b2f 50be 9e1d 863d 9222 953e 8ec7 033e
00000090: fcad 493e b92a e4bd 7f9e 3abe 3168 763e
000000a0: 46de 1f3e adc5 483e 606b 613e b9b4 88bd
000000b0: 9631 84be 359d 0bbe 5c25 63be 71d5 8dbd
000000c0: ce26 9a3e 548f 42be bbdd 5a3e 4072 b13d
000000d0: ea45 8c3e 3d0d 12be b735 1abe af20 6fbe
000000e0: 96e4 9a3e a38b f33d 8227 77be d4cf 57bd
000000f0: fdd3 953c 1cd9 853d d016 82be 1a0d 503e
00000100: 4835 483d 6d4b 94bd b7b6 62be 5c11 823e
00000110: 70be 13be 6bbd ea3c c1c3 ec3d 25f3 043e
00000120: 9c14 62bc f020 29bd cf9b d33d 6345 84be
00000130: aa38 813a 8abc 013e 0e43 e63d dea3 bcbd
00000140: 24b9 3f3e 3d8f 5bbd eeea 40be b3cb 00be
00000150: e152 33be 3d63 513d 77fa 3cbe 70ae 2ebe
00000160: dd0e 1cbe 8253 6f3e 3835 d23d 5005 2fbe
00000170: 3d75 90bc 36d3 8c3b d6de 34be 6d74 9ebc
00000180: 0d1c 203e 2d5d b5bc 684d 4f3b 6c41 bd3d
00000190: dfb5 72be 6549 b13d ca4d 93bd f662 55bd
000001a0: 1196 2ebe
-0.1923702 0.2847132 0.119622454 -0.03304898 -0.22236164 -0.078299284 -0.19758153 0.22888961
-0.26438114 -0.11024334 0.12563936 0.20730814 0.11751947 0.044649433 0.095071726 -0.10481874
-0.26319763 0.07552118 0.048810694 0.28866932 0.10165992 0.2707809 0.2025204 -0.11028691
0.30659825 0.09292213 0.09627309 0.24166353 0.0034217606 -0.19300185 0.030517817 0.12011352
-0.20330445 0.06548618 0.29127938 0.12869093 0.19695276 -0.11140961 -0.18224524 0.24063183
0.15612134 0.19606657 0.22013617 -0.06675095 -0.2581908 -0.13634188 -0.2218222 -0.06925476
0.3010773 -0.18999988 0.21373646 0.086643696 0.2739709 -0.14262863 -0.15059553 -0.23352312
0.30252522 0.11891868 -0.24136165 -0.052688435 0.01828956 0.06535551 -0.2540803 0.20317498
0.048878938 -0.07240949 -0.22140013 0.2540387 -0.14428115 0.028654775 0.115607746 0.12983377
-0.013798859 -0.041291177 0.103324525 -0.25834188 0.0009858806 0.12669578 0.112432584 -0.09210943
0.1872297 -0.0536034 -0.18839619 -0.12577705 -0.17512085 0.05112003 -0.1845492 -0.1705873
-0.15240045 0.233717 0.10264057 -0.1709187 -0.017634029 0.0042976392 -0.1766313 -0.019342626
0.156357 -0.022139156 0.003163183 0.09240994 -0.23702191 0.08656577 -0.071925715 -0.05209633
-0.17049433

bias f4 [7]
00000000: 2171 30be 7d42 853e caf9 d4bd a678 583b
00000010: 1c03 7cbe 0030 f4bd c7f4 59be
-0.17230655 0.2602729 -0.10399206 0.0033030896 -0.24610561 -0.11923218 -0.21284781

weight f4 [1, 7]
00000000: 336c 9c3e 50fb 1ebe 589e a6be 0341 48be
00000010: ec81 cd3e 3143 4fbe 9205 b63e
0.305513 -0.15525556 -0.32542682 -0.1955605 0.40138185 -0.20240475 0.35551125
